output/digit_recognizer_v4_10cls_RGB.tflite (tflite, 81232 bytes, 7 tensors)

tfl.pseudo_qconst1 i1 [10, 72]
000000 c7 81 02 0e cb 38 27 11 0e 88 cf 0b 1a 1b dc e0
       -57 -127 2 14 -53 56 39 17 14 -120 -49 11 26 27 -36 -32
000010 ec e3 14 98 b5 ff 13 fc c1 f2 14 0d 13 df 25 d8
       -20 -29 20 -104 -75 -1 19 -4 -63 -14 20 13 19 -33 37 -40
000020 be c6 f0 e5 d1 c3 af 0e cf 03 f4 c5 f1 0a 0f de
       -66 -58 -16 -27 -47 -61 -81 14 -49 3 -12 -59 -15 10 15 -34
000030 b6 9a 1c 02 ea 2d 15 1c 10 14 dd d5 05 fa ed 10
       -74 -102 28 2 -22 45 21 28 16 20 -35 -43 5 -6 -19 16
000040 b5 fc c6 0a ee 07 eb f0 d2 e1 f3 08 d4 0d ec 05
       -75 -4 -58 10 -18 7 -21 -16 -46 -31 -13 8 -44 13 -20 5
000050 0f 9b a9 15 93 da 1c 0d d6 c9 19 ac 08 1e e5 dc
       15 -101 -87 21 -109 -38 28 13 -42 -55 25 -84 8 30 -27 -36
000060 ae e9 ff fe f9 0b c8 17 e0 f3 c3 e5 c1 1c e0 e6
       -82 -23 -1 -2 -7 11 -56 23 -32 -13 -61 -27 -63 28 -32 -26
000070 1e 1d bd 16 03 06 c2 04 81 a7 fc 0b dc d3 17 f7
       30 29 -67 22 3 6 -62 4 -127 -89 -4 11 -36 -45 23 -9
000080 17 f2 0f d7 e7 03 fe f3 22 eb 00 18 f0 1d b5 00
       23 -14 15 -41 -25 3 -2 -13 34 -21 0 24 -16 29 -75 0
000090 1f e4 be 12 17 bf 2d df 2a bc bc 01 f3 b1 c9 a6
       31 -28 -66 18 23 -65 45 -33 42 -68 -68 1 -13 -79 -55 -90
0000a0 de 21 dc 40 81 f7 07 d5 84 bc 17 c8 ff c4 df 1a
       -34 33 -36 64 -127 -9 7 -43 -124 -68 23 -56 -1 -60 -33 26
0000b0 e0 fc c2 0d 19 eb 15 c1 d9 0e 04 13 f2 ec 11 ce
       -32 -4 -62 13 25 -21 21 -63 -39 14 4 19 -14 -20 17 -50
0000c0 96 30 28 1e 2c b2 ee d8 fa e1 17 9d 85 f4 03 15
       -106 48 40 30 44 -78 -18 -40 -6 -31 23 -99 -123 -12 3 21
0000d0 f3 1a ed d4 17 c6 e8 ef c4 32 e4 ce 01 2b 16 f8
       -13 26 -19 -44 23 -58 -24 -17 -60 50 -28 -50 1 43 22 -8
0000e0 15 e2 07 e7 81 e8 1d 4c f1 e2 dc fc 8f b7 dc f7
       21 -30 7 -25 -127 -24 29 76 -15 -30 -36 -4 -113 -73 -36 -9
0000f0 cf fd 3b 88 12 09 9f d6 af e7 0e c6 2c c0 39 ae
       -49 -3 59 -120 18 9 -97 -42 -81 -25 14 -58 44 -64 57 -82

tfl.pseudo_qconst3 i1 [72, 64]
000000 01 38 05 c6 4e bb 54 7a fa 05 05 cc 4d 17 35 02
       1 56 5 -58 78 -69 84 122 -6 5 5 -52 77 23 53 2
000010 71 17 e5 37 18 1f 5d 1e eb 0c da 1a b8 d7 50 7f
       113 23 -27 55 24 31 93 30 -21 12 -38 26 -72 -41 80 127
000020 4b 44 67 db f4 d4 b7 c8 e9 96 10 08 4a 08 4e 79
       75 68 103 -37 -12 -44 -73 -56 -23 -106 16 8 74 8 78 121
000030 f8 59 2f a4 ca 37 26 0a 9c e5 e8 0d db 3f 14 e0
       -8 89 47 -92 -54 55 38 10 -100 -27 -24 13 -37 63 20 -32
000040 e1 e0 09 02 05 03 e5 1a 56 f8 36 66 5c e8 f4 05
       -31 -32 9 2 5 3 -27 26 86 -8 54 102 92 -24 -12 5
000050 40 3e 18 05 02 1f 07 fa 06 03 02 3d 81 3d 26 29
       64 62 24 5 2 31 7 -6 6 3 2 61 -127 61 38 41
000060 26 f1 b8 ec 0b ca b9 e1 06 ee c2 d3 e7 1f ff 11
       38 -15 -72 -20 11 -54 -71 -31 6 -18 -62 -45 -25 31 -1 17
000070 3f 29 ec a3 9b 08 d0 1d 24 5b f4 22 2b fe df 48
       63 41 -20 -93 -101 8 -48 29 36 91 -12 34 43 -2 -33 72
000080 00 07 b9 43 dc 50 3d 07 a8 3d dd dd 03 6c 4f dc
       0 7 -71 67 -36 80 61 7 -88 61 -35 -35 3 108 79 -36
000090 bc ff cc ca 5e c7 ec 0f 33 f6 6e 7f e4 d8 4a a7
       -68 -1 -52 -54 94 -57 -20 15 51 -10 110 127 -28 -40 74 -89
0000a0 aa fd c1 63 24 48 fc 1f 2d 10 26 2c 0e 37 e6 e8
       -86 -3 -63 99 36 72 -4 31 45 16 38 44 14 55 -26 -24
0000b0 ff 9b ec e4 58 b6 38 d6 0b 8c 01 f6 e7 04 42 26
       -1 -101 -20 -28 88 -74 56 -42 11 -116 1 -10 -25 4 66 38
0000c0 d0 2c ea 20 c8 f3 25 31 3e f3 35 66 1e 14 f7 5d
       -48 44 -22 32 -56 -13 37 49 62 -13 53 102 30 20 -9 93
0000d0 db 1d e6 f0 e2 10 b6 23 b7 d7 fc f0 2c 07 f6 0b
       -37 29 -26 -16 -30 16 -74 35 -73 -41 -4 -16 44 7 -10 11
0000e0 e7 b9 1d d1 f8 26 69 33 bc 19 17 0b 30 13 f3 19
       -25 -71 29 -47 -8 38 105 51 -68 25 23 11 48 19 -13 25
0000f0 ff ca 00 7f 50 47 d3 f4 26 e3 e7 b6 00 53 f1 eb
       -1 -54 0 127 80 71 -45 -12 38 -29 -25 -74 0 83 -15 -21

tfl.pseudo_qconst5 i1 [64, 3, 3, 56]
000000 22 2e 2a 6a 00 0e c4 28 f3 d8 16 31 14 23 fc a7
       34 46 42 106 0 14 -60 40 -13 -40 22 49 20 35 -4 -89
000010 28 52 34 fd 2c fa 40 c4 1a 11 e5 fa f0 fa 2e 2f
       40 82 52 -3 44 -6 64 -60 26 17 -27 -6 -16 -6 46 47
000020 3a ac 1d 21 ed fd 0f 1c 31 20 fb 17 fb ca 0e 1b
       58 -84 29 33 -19 -3 15 28 49 32 -5 23 -5 -54 14 27
000030 e2 33 47 3c ec f3 23 2f f8 24 28 78 fe 1a f7 32
       -30 51 71 60 -20 -13 35 47 -8 36 40 120 -2 26 -9 50
000040 0a d9 22 18 f1 32 00 8c 02 3f 23 e9 45 f2 25 15
       10 -39 34 24 -15 50 0 -116 2 63 35 -23 69 -14 37 21
000050 1d 32 07 0e 35 e4 17 1e 33 b5 16 f2 ee f7 0e 1f
       29 50 7 14 53 -28 23 30 51 -75 22 -14 -18 -9 14 31
000060 ff 39 10 0b 05 de 1b 18 d0 18 34 09 20 fe fb 27
       -1 57 16 11 5 -34 27 24 -48 24 52 9 32 -2 -5 39
000070 24 df 14 5b e0 fe f5 11 f3 db 30 ec 07 55 f3 cc
       36 -33 20 91 -32 -2 -11 17 -13 -37 48 -20 7 85 -13 -52
000080 07 3f 23 c6 24 db 32 25 f3 2f 06 f3 ff 00 f5 d2
       7 63 35 -58 36 -37 50 37 -13 47 6 -13 -1 0 -11 -46
000090 27 e9 f0 02 fc de 10 28 1f 00 23 0d dd d8 16 16
       39 -23 -16 2 -4 -34 16 40 31 0 35 13 -35 -40 22 22
0000a0 a7 e9 21 0a ee 16 d7 49 1c d7 14 40 14 d3 e7 bb
       -89 -23 33 10 -18 22 -41 73 28 -41 20 64 20 -45 -25 -69
0000b0 f3 c2 c6 25 0c 3f 14 14 07 1e 3b dc 11 17 39 0e
       -13 -62 -58 37 12 63 20 20 7 30 59 -36 17 23 57 14
0000c0 fc 13 bf c6 10 da 11 f9 03 81 24 31 d7 29 e9 1f
       -4 19 -65 -58 16 -38 17 -7 3 -127 36 49 -41 41 -23 31
0000d0 1a 18 0b f9 20 c5 0d 01 b0 cf 27 26 00 f0 04 2e
       26 24 11 -7 32 -59 13 1 -80 -49 39 38 0 -16 4 46
0000e0 f4 13 ec 39 f6 c1 f3 a8 eb e8 ae f9 e7 36 db 18
       -12 19 -20 57 -10 -63 -13 -88 -21 -24 -82 -7 -25 54 -37 24
0000f0 f9 0c f2 ab 32 1b 2d 3b e4 17 01 f2 12 0e ed f9
       -7 12 -14 -85 50 27 45 59 -28 23 1 -14 18 14 -19 -7

tfl.pseudo_qconst7 i1 [56, 3, 3, 40]
000000 dd 39 00 d1 98 25 43 e2 ff da 37 1c d8 0c ff 00
       -35 57 0 -47 -104 37 67 -30 -1 -38 55 28 -40 12 -1 0
000010 be 28 c6 14 16 da ef 08 40 2a f0 cf f9 31 1c 10
       -66 40 -58 20 22 -38 -17 8 64 42 -16 -49 -7 49 28 16
000020 e7 06 ed f3 4b ed ee fb ee 3f d3 22 02 e0 0d f1
       -25 6 -19 -13 75 -19 -18 -5 -18 63 -45 34 2 -32 13 -15
000030 b7 e1 19 f7 37 f5 17 1c 2e 09 ef df 3f 10 ed 23
       -73 -31 25 -9 55 -11 23 28 46 9 -17 -33 63 16 -19 35
000040 13 f9 03 00 de f6 2e db e4 c6 f4 00 bf fb df bd
       19 -7 3 0 -34 -10 46 -37 -28 -58 -12 0 -65 -5 -33 -67
000050 f3 c0 f2 c2 10 21 12 16 be 1f 45 1f e2 fa e8 1c
       -13 -64 -14 -62 16 33 18 22 -66 31 69 31 -30 -6 -24 28
000060 be bc 01 11 cd fb ce 13 2f fc e4 1b 2c dc 42 dc
       -66 -68 1 17 -51 -5 -50 19 47 -4 -28 27 44 -36 66 -36
000070 e7 05 0c 0e 2d c3 cc a9 e0 d6 2c a3 b9 51 2a fb
       -25 5 12 14 45 -61 -52 -87 -32 -42 44 -93 -71 81 42 -5
000080 14 33 2c ff 43 fb 30 06 bd 05 d0 08 dc 1d f9 1f
       20 51 44 -1 67 -5 48 6 -67 5 -48 8 -36 29 -7 31
000090 e7 0c ce 1d 20 2f 23 eb e3 dc 22 f1 3a d2 e2 f9
       -25 12 -50 29 32 47 35 -21 -29 -36 34 -15 58 -46 -30 -7
0000a0 10 11 fe 25 fb 05 e4 f5 07 0f f5 db 1a ea 29 f4
       16 17 -2 37 -5 5 -28 -11 7 15 -11 -37 26 -22 41 -12
0000b0 d1 ff fb f5 11 db 0a 1a da f1 d5 1a f0 2e e2 ef
       -47 -1 -5 -11 17 -37 10 26 -38 -15 -43 26 -16 46 -30 -17
0000c0 a1 e8 dd 0b f1 ee ee b9 17 dc 27 c5 f5 f8 16 d8
       -95 -24 -35 11 -15 -18 -18 -71 23 -36 39 -59 -11 -8 22 -40
0000d0 cf 06 2e fa 1d 06 22 41 07 81 e9 08 cb 25 e2 22
       -49 6 46 -6 29 6 34 65 7 -127 -23 8 -53 37 -30 34
0000e0 23 ed 9d d4 17 f4 09 a9 f6 f0 05 fc 07 fb d5 e0
       35 -19 -99 -44 23 -12 9 -87 -10 -16 5 -4 7 -5 -43 -32
0000f0 dd 28 14 17 a7 0d 14 fb d2 13 fa e8 32 f8 23 f7
       -35 40 20 23 -89 13 20 -5 -46 19 -6 -24 50 -8 35 -9

tfl.pseudo_qconst9 i1 [40, 3, 3, 24]
000000 f7 fb d2 ba 11 05 81 20 14 fb 1e f1 12 d8 e3 08
       -9 -5 -46 -70 17 5 -127 32 20 -5 30 -15 18 -40 -29 8
000010 f8 c3 24 1a e9 14 fd 21 a9 15 f7 f4 2e ea cc 06
       -8 -61 36 26 -23 20 -3 33 -87 21 -9 -12 46 -22 -52 6
000020 f6 08 f6 05 1c ae 08 fd ff e0 04 38 c5 fa 26 23
       -10 8 -10 5 28 -82 8 -3 -1 -32 4 56 -59 -6 38 35
000030 cb e4 09 fe 04 ed d6 d2 06 16 0e ba eb f7 fc db
       -53 -28 9 -2 4 -19 -42 -46 6 22 14 -70 -21 -9 -4 -37
000040 23 d2 22 2a e9 16 00 f0 f2 fb d9 5b 2f 0b f8 15
       35 -46 34 42 -23 22 0 -16 -14 -5 -39 91 47 11 -8 21
000050 17 d7 16 e5 2c e5 d7 37 0e 0e 13 1c f8 fb 20 08
       23 -41 22 -27 44 -27 -41 55 14 14 19 28 -8 -5 32 8
000060 b0 17 19 e8 2a f4 d1 23 10 1b 19 05 1b e7 2a 02
       -80 23 25 -24 42 -12 -47 35 16 27 25 5 27 -25 42 2
000070 f2 1b 20 10 bd fd 0b f0 0c c9 02 08 ea e3 ed b8
       -14 27 32 16 -67 -3 11 -16 12 -55 2 8 -22 -29 -19 -72
000080 f6 11 06 01 df ed 17 dc 36 ec 00 16 c9 f7 c1 d9
       -10 17 6 1 -33 -19 23 -36 54 -20 0 22 -55 -9 -63 -39
000090 0e f2 13 3e 2c 03 1a 02 e9 f7 0f 03 00 e8 d7 27
       14 -14 19 62 44 3 26 2 -23 -9 15 3 0 -24 -41 39
0000a0 ed 02 00 01 c1 f3 14 1c e0 04 16 d1 f4 ff f8 f0
       -19 2 0 1 -63 -13 20 28 -32 4 22 -47 -12 -1 -8 -16
0000b0 d1 20 da f7 f6 dd 04 04 09 10 00 f2 f7 ec fa 0c
       -47 32 -38 -9 -10 -35 4 4 9 16 0 -14 -9 -20 -6 12
0000c0 02 c9 e2 19 e6 df 0b 0c cd 12 09 20 e9 e2 11 13
       2 -55 -30 25 -26 -33 11 12 -51 18 9 32 -23 -30 17 19
0000d0 f3 06 cf d5 f6 fc be d6 4f 02 02 16 ca f0 2a 54
       -13 6 -49 -43 -10 -4 -66 -42 79 2 2 22 -54 -16 42 84
0000e0 0b 0b b5 28 11 1c 28 18 ed f9 dd 0e f9 27 37 0c
       11 11 -75 40 17 28 40 24 -19 -7 -35 14 -7 39 55 12
0000f0 f0 4b 88 ce 2b 0b 0b 06 cf ee 05 00 1c 20 bb 38
       -16 75 -120 -50 43 11 11 6 -49 -18 5 0 28 32 -69 56

tfl.pseudo_qconst11 i1 [24, 1, 1, 3]
000000 7f ce 83 c7 81 58 d5 1f 81 7f df c9 16 81 31 bf
       127 -50 -125 -57 -127 88 -43 31 -127 127 -33 -55 22 -127 49 -65
000010 08 7f 7f fc ea 47 81 95 e4 7f 56 1c 2c 81 1b f5
       8 127 127 -4 -22 71 -127 -107 -28 127 86 28 44 -127 27 -11
000020 7f 7f 62 e5 27 81 be 81 0d 00 0a 5f 81 19 a5 81
       127 127 98 -27 39 -127 -66 -127 13 0 10 95 -127 25 -91 -127
000030 d4 7f fe 7f 30 e4 7f cc 6f 7f a6 47 c1 2a 7f 81
       -44 127 -2 127 48 -28 127 -52 111 127 -90 71 -63 42 127 -127
000040 da ab e2 81 51 a5 81 4e
       -38 -85 -30 -127 81 -91 -127 78

tfl.pseudo_qconst13 i1 [1, 3, 3, 3]
000000 77 9f dd 7f d5 06 7f 24 81 b4 bd 56 bb c0 14 eb
       119 -97 -35 127 -43 6 127 36 -127 -76 -67 86 -69 -64 20 -21
000010 69 a8 87 f4 63 c4 fa ff c7 7f 11
       105 -88 -121 -12 99 -60 -6 -1 -57 127 17
